S26/last_brain.pth (torch, 29474 bytes, 18 tensors)

fc1.weight f4 [30, 5]
000000 0a 24 e8 bb a7 64 07 3f 3f 51 36 bf d3 e4 1b bb
       -0.0070843743 0.5288796 -0.7121772 -0.0023787513
000010 16 1a 63 3e ee a1 a9 bd 87 22 04 bc 25 44 bc bd
       0.2217792 -0.08282839 -0.008064873 -0.09192685
000020 f1 ea 18 40 2f 3b ef bf f8 ee 01 bd cd a3 cd bd
       2.3893397 -1.8689936 -0.03172204 -0.10041008
000030 b8 01 4d 3e b0 20 d9 bf ae fd 93 3f 35 52 a2 be
       0.20020187 -1.69631 1.1561792 -0.31703344
000040 72 18 4f be 30 e7 cc bd 04 e7 1e 3e c0 a2 32 be
       -0.20224169 -0.10005033 0.15517813 -0.17444897
000050 e5 45 c4 be 60 82 73 be e8 da f2 bd 70 36 61 3d
       -0.38334575 -0.23780203 -0.11858159 0.054983556
000060 10 f1 b8 be 54 b5 d9 bc 37 3d 1b 3f 63 0a 21 3e
       -0.36121416 -0.026575722 0.6064028 0.15726618
000070 1c 27 76 3f 02 44 4e bf 5c d4 01 bd 79 c8 ba bd
       0.96153426 -0.8057252 -0.031696662 -0.091202684
000080 00 ce 04 3f 4f 12 1d be fd df 31 be 78 fe b1 bb
       0.5187683 -0.15339015 -0.17370601 -0.0054319464
000090 46 4f 7e bf a6 78 c7 be 81 92 9e be 81 a4 8d be
       -0.9933971 -0.38959235 -0.3097115 -0.2766457
0000a0 a2 d8 64 bb 06 1c 9d bc 4f 0d 37 3f f9 c4 95 3f
       -0.0034919162 -0.019178402 0.7150468 1.1700736
0000b0 a3 86 e2 bf 0e bf e5 bc 88 3e da bf ff cd 2f bf
       -1.7697338 -0.028045204 -1.7050333 -0.686737
0000c0 4f 4e bc 3f 17 04 af bf 65 cb 43 bb ed 49 12 3f
       1.4711398 -1.3673123 -0.0029875871 0.5714405
0000d0 0e db c2 bd bb 42 8a bf 96 06 07 3f 17 8f b5 bf
       -0.095144376 -1.0801615 0.52744424 -1.4184293
0000e0 9a 9b 9b bf 37 0e 76 bb 27 0e b4 3e 21 34 ee 3e
       -1.2156861 -0.0037545094 0.35167047 0.46524146
0000f0 f5 d3 00 bc d5 8a ac 3f f8 37 90 3f 28 08 e5 be
       -0.0078630345 1.3479868 1.126708 -0.44732785
000100 a2 95 12 3c 1d 33 ad bf 0d aa 48 bf 88 2d 48 3c
       0.008946808 -1.3531224 -0.78384477 0.012217887
000110 e6 f9 72 be 37 a7 ca 3d 33 b9 6f bf e1 91 c0 3b
       -0.23728141 0.09895175 -0.93641967 0.005876765
000120 ad 46 7a bc 30 99 2e 3e d6 ab 31 3e 27 07 7d bc
       -0.0152756395 0.17050624 0.17350706 -0.0154436
000130 2e d8 a5 bf de 74 98 bc 8a b5 52 be c6 94 d3 3e
       -1.2956598 -0.018610414 -0.20577064 0.41324443
000140 89 c5 fc bc ca 5a e5 3b 64 ee 84 3d 4c 99 34 be
       -0.03085591 0.0069993483 0.06490782 -0.17636603
000150 43 43 cc bd f9 0f 40 bb 24 b0 7e 3f 17 b9 10 3d
       -0.09973767 -0.0029306395 0.9948752 0.035332765
000160 79 ce c3 3e 8f c5 ac be 4f 51 e7 bc 47 bf a4 be
       0.38243464 -0.33744475 -0.028237013 -0.32177183
000170 f8 02 95 3e c7 3e bf bd 94 8f 83 be 86 e4 20 bc
       0.29103827 -0.09338146 -0.2569548 -0.009820109
000180 20 cb 90 bd 68 31 bc 3e c4 ad 93 bd 1c e6 9e be
       -0.07069993 0.36756444 -0.072108775 -0.31034935
000190 db 44 9e bd 2b 39 2f bf 9e df 0d 3f 6f a8 78 be
       -0.07727977 -0.68446606 0.5541934 -0.24283002
0001a0 9b f3 56 be 17 54 a3 bc 29 1a 94 bf 06 8b 26 be
       -0.20991366 -0.019937558 -1.1570483 -0.1626397
0001b0 d2 02 8a be 1c 63 77 3d 43 e9 d0 bb e4 86 63 3e
       -0.26955277 0.060397252 -0.006375463 0.22219425
0001c0 87 78 f5 3e e5 fa 90 3e 06 e6 f9 be c6 05 01 bd
       0.47943518 0.28316417 -0.48808306 -0.031499647
0001d0 07 e0 b9 3b cf 99 14 3f 2a 2b cc 3c d9 58 a2 3d
       0.005672458 0.58047193 0.024922926 0.079271026
0001e0 38 b1 79 bc 84 46 b9 bf fd 7b c0 3d bc ff f5 be
       -0.015240006 -1.4474645 0.09398649 -0.48046672
0001f0 32 b7 8f 3e f9 8e 83 be 67 4f 59 be 4e d5 25 be
       0.28069454 -0.25695017 -0.21221696 -0.1619465
000200 c8 14 1f c0 54 64 31 40 40 e3 63 bd f0 22 f7 bd
       -2.4856434 2.7717485 -0.055636644 -0.12067211
000210 40 f2 4c bc a8 e6 5b 3e e0 85 2b bc 04 14 1b bf
       -0.012508929 0.21474707 -0.01046893 -0.60577416
000220 a2 d8 19 bc f6 90 71 be 97 f4 3d 3e af 8b ab 3e
       -0.009390028 -0.23590454 0.18550335 0.33505008
000230 84 e4 34 bb d1 da 36 3c 69 07 8c bd e3 9e b1 3c
       -0.0027602026 0.011160568 -0.06837351 0.021682208
000240 61 3f 83 bd eb 88 27 bc 4e b8 c1 3d 9d 2e 82 3e
       -0.06408573 -0.010225515 0.094589815 0.25426188
000250 f6 b2 6a 3d b9 d0 40 3e
       0.057299577 0.18829621

fc1.bias f4 [30]
000000 f6 18 11 3f 86 5f 98 bf 87 8e 66 3f 0b 42 b1 be
       0.5667871 -1.1904151 0.9006123 -0.346207
000010 2f eb c9 be 6a c4 6e 3f b8 a4 01 bf 84 55 fc be
       -0.39437243 0.93268454 -0.50641966 -0.49283993
000020 e3 72 30 be 20 c4 ff 3e 9b d8 5d bf 07 5d 2c 40
       -0.17231326 0.4995432 -0.8665864 2.693178
000030 1f 97 52 40 a4 2d ab 3f 25 43 74 3f ee e9 16 bf
       3.2904737 1.3373303 0.95414954 -0.589507
000040 ae d6 35 3f cd 56 9e bf 29 89 82 3f bd 88 7d 3d
       0.710307 -1.237024 1.0198108 0.061897982
000050 66 3b 4e 3e 48 25 ca 3f 41 0f be 3f 71 a1 b4 3f
       0.20139846 1.5792627 1.4848405 1.4111768
000060 82 c5 a8 3f ce 4e 94 3f 33 8e be be 4c 20 89 3f
       1.3185275 1.1586549 -0.37217864 1.0712981
000070 11 63 5b be ac 0b 00 3f
       -0.2142451 0.5001781

fc2.weight f4 [50, 30]
000000 0b 27 c0 bd 78 1f 19 be fb 40 a0 bd 59 bb ff bd
       -0.09382447 -0.1495341 -0.07824894 -0.124869056
000010 38 23 ef bc 99 93 9c be b1 da c4 be 6b 8e 9a bd
       -0.029191598 -0.30581358 -0.38448098 -0.07546695
000020 7e 5c d7 3d 77 2c 31 bd 43 fb 1a 3e 4e f6 52 bf
       0.10515688 -0.043255296 0.15134911 -0.8240708
000030 db 0c 06 be e2 11 84 be 7d f1 b7 be 4c 5e 56 bd
       -0.13090841 -0.25794894 -0.35926428 -0.052336022
000040 b7 03 b9 bd df 02 bd bb e6 60 3b be 1e 73 45 be
       -0.09033912 -0.0057681645 -0.18298683 -0.19282195
000050 27 07 ad bd 4d 82 83 3e ee 6a a9 be e3 dd 5f 3e
       -0.0844863 0.2568535 -0.33089393 0.21861987
000060 bb ac 2d bb 57 dc 0f 3e 90 63 7f bd b4 4c d1 bd
       -0.002650066 0.14048897 -0.06235081 -0.10219708
000070 9b 6c 38 3d 8b 4d fd 3d f4 46 e5 3d 9a 48 12 bf
       0.04502545 0.12368306 0.11195174 -0.5714203
000080 cf 6d 14 be c6 4a 0b be 60 43 6f 3d 87 2c fc 3d
       -0.14495014 -0.13602743 0.058413863 0.123131804
000090 e8 8e c6 3e 3a 62 b1 bc d5 78 2f 3d b4 dc 11 be
       0.38780904 -0.021653283 0.042839844 -0.14244348
0000a0 ae e8 89 bd 7d f0 22 40 ff 85 0a 3d 77 bd 9b 3e
       -0.06733833 2.5459282 0.033819195 0.30417988
0000b0 af f3 15 40 31 08 f1 bd 3e f3 13 be 88 d8 c9 3d
       2.3429983 -0.117691405 -0.14448258 0.09855753
0000c0 97 08 90 3e d5 a7 91 bd bd b0 e2 3e ba 23 a5 3f
       0.28131554 -0.071120895 0.44275466 1.2901528
0000d0 f1 02 71 be ea dd 1c bd 33 a0 06 3e 77 bb 8e be
       -0.23536278 -0.03829757 0.13147049 -0.278774
0000e0 d1 a5 9d bd 85 f6 a9 3e 60 f3 c8 3d 66 73 de 3d
       -0.076976426 0.33195892 0.09812045 0.10861854
0000f0 a3 a0 c3 3c 17 b1 37 bd 07 80 17 3e b1 44 a5 bd
       0.023880308 -0.04484662 0.14794932 -0.080697425
000100 0e 39 03 be b3 31 cb 3d 5d a2 ed bc 09 40 bc 3d
       -0.12814733 0.09921589 -0.029008085 0.09191901
000110 bf 97 ee ba ec 9f 97 3d c4 c1 b6 bd 5e bc 94 3e
       -0.0018203183 0.074035496 -0.089236766 0.29049963
000120 05 2e 12 3d 87 60 24 3f e5 1b c0 bd 53 8f 22 bc
       0.03568842 0.6420979 -0.093803205 -0.0099218665
000130 c5 4d 86 bd d5 7a 02 be 81 9b a5 3d 12 2b cf be
       -0.06557802 -0.12742169 0.08086301 -0.40462548
000140 ca 9d 44 bd 45 73 fd bd ca 9d bd bd 51 4e 59 bd
       -0.048002042 -0.123755015 -0.092586115 -0.053053204
000150 5d 47 9f bd 06 bf 55 bd 14 55 d9 3d f8 71 6b ba
       -0.07777283 -0.052184127 0.106119305 -0.0008981521
000160 ca c7 95 39 cc 7b 00 bd 12 87 fe 3d 41 33 04 3f
       0.0002856835 -0.031368062 0.12428106 0.5164071
000170 13 27 31 3e c7 e4 b8 bd 18 c5 ba 3d 3e 05 18 be
       0.17300062 -0.09028011 0.09119624 -0.1484575
000180 b7 1d 95 bd ea 83 52 bd f4 af 61 bd 20 ba a6 bd
       -0.07281058 -0.051395334 -0.055099443 -0.08140969
000190 9a f9 1e 3e b7 d7 6d c0 e3 f4 09 be dc 9f d4 be
       0.15524903 -3.7162912 -0.13472323 -0.41528213
0001a0 42 72 8a c0 c5 8f ad 3c 07 ca 85 3e 68 de 91 bd
       -4.3264475 0.021186719 0.26130697 -0.07122499
0001b0 d9 01 95 be c7 66 23 be a4 94 b0 bd 1d 99 af bf
       -0.29102972 -0.15957175 -0.08622101 -1.3718601
0001c0 45 35 dd 3e 85 d5 72 bd af 92 40 be 33 da 81 3e
       0.43204704 -0.05928566 -0.18805955 0.25361785
0001d0 db 78 a3 bd 9c 98 41 3d e0 7d 2e 3e c0 4b 31 be
       -0.07982036 0.04726468 0.17040205 -0.17314053
0001e0 8b 39 d3 bd bc 33 12 be 9b 82 5f bd ab 79 0d be
       -0.1031371 -0.14277548 -0.054567914 -0.13815944
0001f0 68 b5 1a bd 0f 5c 86 be a8 20 c0 bd 02 2d b4 3c
       -0.03777066 -0.2624211 -0.09381229 0.021994118
000200 90 57 ba bd b5 7b 94 bc 07 bf 42 3c 30 8e 3a bf
       -0.090987325 -0.018125394 0.011886365 -0.7287321
000210 15 a6 6d bc 53 26 64 be 74 a2 40 bf d5 ee af 3d
       -0.014504929 -0.22280245 -0.75247884 0.085904755
000220 04 38 35 bd 32 b9 03 be 13 f0 23 bd a8 0a 52 be
       -0.044242874 -0.12863615 -0.040023874 -0.20511878
000230 04 40 4a 3d 68 6b c7 3f d8 ca 86 3e 1f ea 1b 3e
       0.049377456 1.5579653 0.26326632 0.15226029
000240 19 cf a7 3c ab dc 32 3e b8 db 68 bd f6 8d cf 3d
       0.020484494 0.1746699 -0.056850165 0.10134499
000250 a4 c6 e6 3d 59 8e 47 3e b0 65 74 3d 4b bf b4 be
       0.112683564 0.19487895 0.05966729 -0.35302195
000260 ed f0 82 bd 09 28 08 be 9a 01 24 be e9 49 0a 3d
       -0.06393609 -0.13296522 -0.16016236 0.033761892
000270 a7 3b 73 be 9c 66 39 3d b9 ee e0 bc 06 48 79 be
       -0.23753224 0.04526387 -0.027457582 -0.24343881
000280 91 53 4a bd 4b 16 e5 3e 8f 4b 87 3d 30 62 82 be
       -0.0493961 0.4474357 0.066062085 -0.25465536
000290 0e 25 15 3e 8b 0c 7e ba de e6 27 be 01 be 31 3d
       0.14564916 -0.00096912 -0.16396663 0.043394092
0002a0 9d 6e 03 3e ee 87 2d bc 19 3e a9 3d 44 e4 c5 3e
       0.12835164 -0.01059149 0.08263797 0.38650715
0002b0 ea 76 82 3e 82 05 7b bd 91 34 79 3d 1a c5 25 bc
       0.2548135 -0.06128455 0.060841147 -0.010117793
0002c0 14 7e 35 3d b9 49 8d be ad 57 a1 bd 3b 66 3f bc
       0.04430969 -0.27595308 -0.07878051 -0.0116820885
0002d0 a0 69 70 bc 43 53 bd 3e 64 03 50 3d d6 b7 14 be
       -0.01467362 0.36977586 0.050784484 -0.14523253
0002e0 40 57 b6 3d ad 22 37 be e3 c9 2b 3e cc dc 88 bd
       0.0890336 -0.17884322 0.16776232 -0.06682739
0002f0 94 3e 86 3d 3c 77 03 3f 25 19 12 bc 9f b3 e1 bf
       0.065549046 0.5135381 -0.008917128 -1.7632941
000300 9e 4d 65 bc 7b 5b 4a 3f 9d b2 05 bf aa 07 da bc
       -0.013995556 0.7904584 -0.5222567 -0.026614983
000310 f0 a9 45 3e d9 57 c4 bd ce 77 32 be c7 6d 76 bd
       0.19303107 -0.09587068 -0.17428514 -0.060163286
000320 5c 2c cf bd 6f 04 91 be 50 e8 b1 3e e8 f2 5c 3d
       -0.10115883 -0.28323695 0.34747553 0.05394259
000330 c9 79 2a bd 4d 74 9c 3e aa 58 9f bd 4c 64 df 3d
       -0.04162005 0.3055748 -0.07780583 0.10907802
000340 e7 5d e4 bc 64 a2 68 bc 51 94 01 3e 69 70 49 be
       -0.027876807 -0.014198873 0.12654234 -0.19671787
000350 5a 27 ae bb b4 c4 03 be cc 35 b4 3d 68 c7 25 bd
       -0.0053147497 -0.12868005 0.087993234 -0.04047337
000360 f9 a6 d6 3d ed bc 73 3d 47 e7 a7 bd e4 81 68 3e
       0.10481066 0.059506346 -0.081984095 0.227058
000370 6d 3c d5 3c f2 58 d8 3e 27 45 1d bd 8d 21 24 3e
       0.02602979 0.4225536 -0.038396027 0.16028424
000380 ec da b2 3f 9e 01 db bc df 63 00 3e 84 04 18 3e
       1.397306 -0.02673417 0.12538098 0.14845473
000390 81 4c 4e be 0f 0c 83 bd 6d 5a 4e 3e 49 ca 14 3f
       -0.20146371 -0.06398784 0.20151682 0.5812116
0003a0 79 0e b2 3e 93 ab 95 3d bc b3 04 3e 22 4c 1e bb
       0.34776667 0.07308116 0.12959188 -0.0024154265
0003b0 f4 86 aa 3d 12 d1 cf 3d 9b 15 0a 3e 3a 9f 8d 3d
       0.083265215 0.10147299 0.13484804 0.06915136
0003c0 fa 76 ca bd 02 3c f4 3d 51 5b 15 3d dc e6 f9 3d
       -0.09885974 0.11925508 0.03646404 0.12202236
0003d0 d0 97 17 bd b8 3d 3c be 78 e1 c1 bd df 8f e7 3c
       -0.037010014 -0.18382919 -0.09466833 0.028266845
0003e0 b3 81 ee 3d 8f c3 01 3e e9 44 55 bd 1a a5 2b bf
       0.11645832 0.12672256 -0.05206767 -0.670488
0003f0 ad 7b 2e bd f2 a9 2a be ec a2 80 bf ed 01 f3 3d
       -0.042598415 -0.16666391 -1.004972 0.11865602

fc2.bias f4 [50]
000000 7c de ae bf 08 01 95 bf d4 0f 3c 3f e2 4a 10 40
       -1.3661647 -1.164094 0.7346165 2.2545705
000010 8d 1f 48 be d7 ce ec 3f fb 56 b1 3f b9 6f 4d be
       -0.19543286 1.8500623 1.3854669 -0.2006215
000020 e1 85 1c 40 c2 6c f5 3f 50 c4 23 bf 4d 72 90 bf
       2.4456713 1.9173815 -0.63971424 -1.1284882
000030 2b f7 84 be 3a 7e 4f be 32 0e 09 c0 a4 90 b7 3c
       -0.25969824 -0.20262995 -2.1414914 0.022407837
000040 e1 93 c9 3f 00 77 f3 3e 05 0e cf 3f e1 37 08 40
       1.5748254 0.47551727 1.6176153 2.1284106
000050 e9 96 03 c0 f5 52 35 be 2d 6c 24 c0 5e be 1a 40
       -2.0560858 -0.17707427 -2.5691025 2.417869
000060 66 96 90 3e bb 88 1f 3e 8e 92 84 3f d7 05 e3 3f
       0.28239745 0.15579502 1.0357225 1.7736157
000070 83 1b d3 be bb ab ad bf ba 52 18 c0 e2 cd 3d 3f
       -0.41231927 -1.3568033 -2.3800492 0.7414228
000080 6e 22 44 c0 90 42 de bf b9 8c 92 40 b2 18 b7 3f
       -3.0646014 -1.7364063 4.579678 1.4304411
000090 a3 9c 13 bf 0f ab 3d 3f 28 49 82 bf 37 17 79 be
       -0.57660884 0.7408914 -1.0178576 -0.24325262
0000a0 fc 60 10 bf 6a 51 0c 40 d4 20 d2 3f 06 9c 1c 3f
       -0.56397986 2.1924691 1.6416268 0.6117557
0000b0 57 f8 2c 3f 4f c7 27 3f d3 a0 35 bf 8f f0 1c c0
       0.67566437 0.65538496 -0.70948523 -2.4521825
0000c0 74 e0 d5 bf 27 e8 61 3e
       -1.6709123 0.22061215

fc3.weight f4 [3, 50]
000000 57 02 bf 3c 78 75 83 3d a0 60 80 3d 6b b6 36 bd
       0.023316545 0.0641889 0.0626843 -0.04460756
000010 de c2 28 3d 52 85 56 3d 5f 5c 06 3b c7 29 8d 3d
       0.041201465 0.052373238 0.0020501835 0.06892734
000020 58 b2 11 3d 1a f4 85 bd 98 84 74 3d dd 10 30 bd
       0.035570472 -0.06540699 0.059696764 -0.042984832
000030 c7 eb 42 bd be 82 76 bd d6 76 ef 3b 8c cd 70 3d
       -0.047588136 -0.06018328 0.0073078675 0.058789775
000040 c5 ad 40 3c 1f 76 2b 3d 21 9d ec 3a 5b ef c1 bd
       0.01176018 0.041860696 0.0018052199 -0.094694816
000050 68 cc 8f 3c 08 1b 72 3d 1e e5 f2 bc d4 72 23 bc
       0.017553523 0.05910781 -0.029650267 -0.009976108
000060 c0 6c a3 b9 7c bb 2e 3c 3a cc 2f 3b 10 fc ad bb
       -0.00031170808 0.010664817 0.002682461 -0.005309589
000070 44 b5 5a bd f7 2a 22 3d e4 f7 81 bd b2 b4 67 3c
       -0.053395525 0.039591756 -0.063461095 0.014142202
000080 ee d2 e3 3c 33 56 1e 3b 02 5e 62 bd 15 9e 46 3d
       0.02781054 0.0024160265 -0.055265434 0.048490603
000090 43 59 50 bc b8 8e 6f bd 6c 18 d1 3b 82 4c 4b bc
       -0.012716594 -0.058485717 0.006381085 -0.012408378
0000a0 c0 26 8e bc f6 ae a1 3c c2 50 47 3d c2 97 fa bc
       -0.017352462 0.019736748 0.048661 -0.030589942
0000b0 5c dc e3 3b 1c 72 36 bc ae d7 50 3c a3 c6 e2 bb
       0.006953759 -0.011135604 0.012746735 -0.006920652
0000c0 d2 b8 71 bd 41 bc 44 3d 1b 97 10 3c 27 b7 ae bb
       -0.05901415 0.048031095 0.008825089 -0.005331892
0000d0 bf 56 32 bf f0 43 3b be 18 04 35 3b fa 75 6b bd
       -0.69663614 -0.18287635 0.0027620848 -0.057485558
0000e0 b4 14 a4 be 2f de 4a 3d 69 89 45 be 95 1c 86 bd
       -0.32047045 0.049528297 -0.19290699 -0.0654842
0000f0 76 25 0a be b2 c2 ef 38 37 73 89 3c ed a2 08 3e
       -0.13490853 0.00011432673 0.016778572 0.13343401
000100 d6 64 bb 3d aa f0 a5 3e e1 75 2f be 8a e4 e4 3c
       0.09150092 0.32410175 -0.17134811 0.027941007
000110 c3 ce 69 3e 72 e7 19 3d eb 14 5e 3d da 8b 24 be
       0.2283278 0.03757424 0.054219168 -0.16068974
000120 69 7d 90 3e 37 1a 8e be f9 42 18 3e 3d ee 04 be
       0.2822068 -0.27754375 0.14869298 -0.12981506
000130 84 68 ce 3c 75 8a b2 ba 50 ee 36 3d 9b 92 4d 3a
       0.025196321 -0.0013621586 0.044660866 0.00078419753
000140 ec af 87 3e 29 22 c3 bc 5a c5 92 3e 00 8c 7e 3e
       0.26501405 -0.02382 0.28666192 0.24858093
000150 85 56 71 bc 74 3b d3 bd c7 ac a8 3e 3c 81 8c be
       -0.0147301005 -0.10314074 0.3294432 -0.27442348
000160 cd 2f 68 3b b6 0c 1c bd d5 98 40 be dc d0 e2 bd
       0.0035428882 -0.03809806 -0.18808301 -0.11074993
000170 8f 16 63 bc e3 b6 d6 3d ce 45 47 be 27 cb 46 3c
       -0.013860359 0.104841016 -0.19460222 0.012133396
000180 e6 49 97 3c 9c 60 ca 3d b2 47 4a 3e 70 ec 4c be
       0.018467855 0.09881708 0.19753912 -0.20012069
000190 16 2d 3c 3e a5 ec 8e bb 34 ac 2b bf 41 08 c9 bd
       0.18376574 -0.0043617063 -0.67059636 -0.098160274
0001a0 78 91 54 3d 0b 84 c4 bd a6 8c 3b be 42 ab 25 3e
       0.051896542 -0.09595498 -0.18315372 0.16178611
0001b0 15 08 2e be 52 8c 11 be 2f 4d a4 3d 28 42 04 bc
       -0.1699527 -0.14213684 0.08022534 -0.0080724135
0001c0 67 9f 87 3e 8b dc a8 3e 43 ed c1 3d c2 2b 8d 3e
       0.26488802 0.3298076 0.09469082 0.27572447
0001d0 71 ce 54 bd 38 77 22 be f4 b0 e7 3c ab f3 81 3d
       -0.05195469 -0.15865791 0.02828262 0.06345304
0001e0 be be 38 3d f8 b3 80 be 61 e8 46 3e 77 b9 c2 bd
       0.04510378 -0.25137305 0.19424583 -0.09508031
0001f0 a1 90 26 3d 8a d6 b9 bb cd 66 91 bd ca 18 9c bd
       0.040665273 -0.005671327 -0.07099686 -0.07621916
000200 1b 57 17 3d f1 e9 1a 3e ef dd 26 3e b3 47 15 3c
       0.036948305 0.15128304 0.16295598 0.009111333
000210 ed d5 56 3e 67 2c 5f 3d 14 42 08 bc 1c f9 95 bd
       0.20980044 0.054485705 -0.0083165355 -0.073229045
000220 d2 4e bd 3e 5b 32 7b be 1a 60 0e 3e e8 3d 0e 3e
       0.36974198 -0.24530928 0.13903847 0.13890803
000230 ac f8 d3 be 74 e0 23 be b9 4d 0f bd 5b 78 9f 3c
       -0.4140066 -0.16003591 -0.03498623 0.01946657
000240 8c 04 3f be de da 18 3c 0c 5c 8f bd 53 00 5a 3e
       -0.18654078 0.009329526 -0.069999784 0.21289186
000250 92 1d 30 3e fe 91 02 bf
       0.1719878 -0.51004016

fc3.bias f4 [3]
000000 c8 f1 02 c1 dd eb 10 bf 17 4c 91 be
       -8.184029 -0.566099 -0.28378364

exp_avg f4 [30, 5]
000000 33 24 98 3a fb b1 8b ba 40 a4 2a 3b eb 05 d0 ba
       0.0011607468 -0.0010657901 0.0026037842 -0.0015870904
000010 eb 05 d0 3a 03 f5 1a 3b 90 78 20 3b 7b bb cc 3b
       0.0015870904 0.0023644574 0.0024485923 0.0062479354
000020 eb 0f 89 3a eb 0f 89 ba 6e 75 d9 3a c7 d4 19 bb
       0.0010457014 -0.0010457014 0.0016590783 -0.0023472772
000030 70 2b 56 ba 20 c1 b1 b9 20 c1 b1 39 00 00 00 00
       -0.0008169925 -0.0003390396 0.0003390396 0.0
000040 00 00 00 00 00 00 00 00 00 00 00 00 00 00 00 00
       0.0 0.0 0.0 0.0
000050 00 00 00 00 00 00 00 00 00 00 00 00 00 00 00 00
       0.0 0.0 0.0 0.0
000060 00 00 00 00 6b 1a 40 3a 06 bb 80 3a b4 9c b2 ba
       0.0 0.00073281553 0.0009821362 -0.0013627023
000070 58 fb 72 3a 58 fb 72 ba 64 ee 35 3b a4 92 9d 3a
       0.00092690205 -0.00092690205 0.00277605 0.0012021852
000080 a9 3f 50 bb 5a 48 9e 39 5a 48 9e b9 04 00 00 00
       -0.0031776226 0.00030190015 -0.00030190015 6e-45
000090 04 00 00 00 04 00 00 00 04 00 00 80 04 00 00 00
       6e-45 6e-45 -6e-45 6e-45
0000a0 1c bb 2f 3a ba 2c 85 ba fd f0 18 3a 95 90 91 b8
       0.00067036017 -0.0010160424 0.000583425 -6.941069e-05
0000b0 95 90 91 38 f2 22 bc b9 7c 51 d0 b9 ce fd 34 3a
       6.941069e-05 -0.0003588419 -0.00039733562 0.0006904275
0000c0 5f 7a c0 b9 5f 7a c0 39 14 3e 01 3a 3e cf 2a 3b
       -0.00036712267 0.00036712267 0.000493021 0.0026063467
0000d0 3c 35 85 b9 12 2f 92 3a 12 2f 92 ba ee 8d dd 3b
       -0.000254074 0.0011152944 -0.0011152944 0.006761304
0000e0 8a 00 15 3c e8 bd 28 3d be 5e f8 bb be 5e f8 3b
       0.009094367 0.041196734 -0.0075796535 0.0075796535
0000f0 c2 03 a8 3a 2f 51 89 ba f8 ed ca 3a aa d4 38 ba
       0.0012818503 -0.0010476465 0.0015482297 -0.00070507324
000100 aa d4 38 3a 06 d0 44 3b 4c 60 1a ba 5f c9 53 3c
       0.00070507324 0.0030031218 -0.0005888983 0.012926429
000110 e2 f8 19 bb e2 f8 19 3b f8 50 41 bb e1 78 ba 3c
       -0.0023494293 0.0023494293 -0.0029497724 0.022762718
000120 91 14 52 3d cf 67 a0 3b cf 67 a0 bb 04 00 00 00
       0.051289145 0.0048951874 -0.0048951874 6e-45
000130 04 00 00 00 04 00 00 00 04 00 00 80 04 00 00 00
       6e-45 6e-45 -6e-45 6e-45
000140 b2 0d 99 3a d5 de 85 ba 88 c3 1a 3a 08 75 be b9
       0.0011677055 -0.0010213504 0.000590377 -0.0003632682
000150 08 75 be 39 a4 14 ff 3a d8 04 55 3b 13 ac ad 3a
       0.0003632682 0.0019461107 0.0032504108 0.0013250135
000160 cb 88 80 b9 cb 88 80 39 8a bf ae 3a bc 98 e5 39
       -0.0002451598 0.0002451598 0.001333223 0.0004379208
000170 70 60 e8 39 fc 01 7a b9 fc 01 7a 39 1b 73 bc bb
       0.0004432234 -0.00023842597 0.00023842597 -0.0057510263
000180 09 93 56 3b 41 5e 0c bc 39 30 72 3b 39 30 72 bb
       0.0032741448 -0.008567394 0.0036955012 -0.0036955012
000190 1f 5e 11 bb c0 5a 7a 3a f4 bb 41 3b ca ee 8e 39
       -0.0022181345 0.0009550266 0.0029561492 0.00027262262
0001a0 ca ee 8e b9 e0 6c 11 3c 5f f0 ed 3b f6 e8 96 3a
       -0.00027262262 0.0088760555 0.0072613205 0.001151352
0001b0 27 20 ba bb 27 20 ba 3b d8 fe 56 3b bd f6 41 bb
       -0.0056801024 0.0056801024 0.0032805707 -0.002959653
0001c0 4e d6 c5 3b cf 26 21 bb cf 26 21 3b e4 05 5f b9
       0.00603751 -0.0024589782 0.0024589782 -0.00021269132
0001d0 ef c8 e8 b9 e8 75 26 3a 21 8a f6 b9 21 8a f6 39
       -0.00044400195 0.0006349967 -0.0004702369 0.0004702369
0001e0 4f 39 d7 bb 9a 12 ec b9 03 4c 16 bb 15 8b 0f 3a
       -0.006568111 -0.00045027287 -0.002293349 0.0005475742
0001f0 15 8b 0f ba 3a 8a 18 bb e2 b0 17 bb 28 fd dc bb
       -0.0005475742 -0.0023275749 -0.0023146202 -0.0067440458
000200 ac 39 6e 3a ac 39 6e ba 00 00 00 00 00 00 00 00
       0.0009087573 -0.0009087573 0.0 0.0
000210 00 00 00 00 00 00 00 00 00 00 00 00 16 a2 7f 39
       0.0 0.0 0.0 0.00024379077
000220 66 30 47 39 6a a1 99 39 10 42 3c 38 10 42 3c b8
       0.00018996149 0.00029302697 4.488422e-05 -4.488422e-05
000230 04 00 00 00 04 00 00 00 04 00 00 00 04 00 00 00
       6e-45 6e-45 6e-45 6e-45
000240 04 00 00 80 b0 e6 ba ba 1c 88 41 3b 0c b0 a0 ba
       -6e-45 -0.0014259424 0.002953059 -0.0012259497
000250 10 b7 90 3a 10 b7 90 ba
       0.0011040885 -0.0011040885

exp_avg_sq f4 [30, 5]
000000 16 25 d4 40 37 2b f1 38 9e 4c 6f 37 cf 50 81 36
       6.629527 0.00011499825 1.4263349e-05 3.853907e-06
000010 cf 50 81 36 64 85 0e 39 76 44 4e 39 4c cf 00 39
       3.853907e-06 0.00013591867 0.00019671195 0.00012284255
000020 d9 73 31 37 d9 73 31 37 1c 18 da 46 c5 dd 53 39
       1.0576995e-05 1.0576995e-05 27916.055 0.00020205144
000030 99 5b 88 3a 2f 52 2a 37 2f 52 2a 37 00 00 00 00
       0.0010403275 1.01519245e-05 1.01519245e-05 0.0
000040 00 00 00 00 00 00 00 00 00 00 00 00 00 00 00 00
       0.0 0.0 0.0 0.0
000050 00 00 00 00 00 00 00 00 00 00 00 00 00 00 00 00
       0.0 0.0 0.0 0.0
000060 00 00 00 00 91 53 5c 4e c5 b1 1e 39 bd 89 cd 39
       0.0 9.2411603e+08 0.00015134279 0.0003920327
000070 8f e5 7a 36 8f e5 7a 36 7b 54 d2 53 98 c3 77 39
       3.7386524e-06 3.7386524e-06 1.806721e+12 0.0002362862
000080 17 59 6a 3a a0 a1 1c 36 a0 a1 1c 36 1f 67 96 42
       0.0008939667 2.333989e-06 2.333989e-06 75.20141
000090 82 43 84 13 b0 c1 01 13 9d 66 4b 13 9d 66 4b 13
       3.3388052e-27 1.6377584e-27 2.5672794e-27 2.5672794e-27
0000a0 32 46 06 43 48 1f 51 38 6f b2 03 39 82 53 1e 35
       134.2742 4.9858616e-05 0.00012559605 5.8981107e-07
0000b0 82 53 1e 35 53 be d3 52 0e 39 88 36 c0 f1 68 37
       5.8981107e-07 4.547156e+11 4.059758e-06 1.3884564e-05
0000c0 51 70 d7 36 51 70 d7 36 96 4e 3c 42 32 e1 94 39
       6.4205747e-06 6.4205747e-06 47.076744 0.00028396543
0000d0 f9 d0 90 39 03 49 8b 36 03 49 8b 36 23 7d cd 39
       0.00027621517 4.1510225e-06 4.1510225e-06 0.0003919388
0000e0 d3 88 f1 39 97 b6 57 3c d1 e7 8d 39 d1 e7 8d 39
       0.00046069044 0.013166091 0.00027066332 0.00027066332
0000f0 24 70 5a 43 ce 61 9a 38 46 00 16 39 50 d6 fc 35
       218.43805 7.36151e-05 0.00014305217 1.8837836e-06
000100 50 d6 fc 35 67 32 44 39 78 52 a1 39 01 9d 38 3c
       1.8837836e-06 0.00018710793 0.00030769757 0.011267901
000110 95 31 83 39 95 31 83 39 18 49 03 3b 2f d0 ee 3c
       0.0002502321 0.0002502321 0.002003258 0.029152004
000120 4c 70 1e 3d 1a 1a b4 3a 1a 1a b4 3a a3 36 35 41
       0.038681313 0.0013740689 0.0013740689 11.325839
000130 54 43 50 25 59 fe 18 2b 40 14 12 2a 40 14 12 2a
       1.8063936e-16 5.4354226e-13 1.297443e-13 1.297443e-13
000140 8a de 2b 50 40 33 b1 38 1f d1 0d 39 fe 21 11 36
       1.1533953e+10 8.449564e-05 0.00013524712 2.162647e-06
000150 fe 21 11 36 78 f4 e1 40 4d 4d af 39 2d 54 58 39
       2.162647e-06 7.0610924 0.00033436195 0.00020630723
000160 95 f7 c7 35 95 f7 c7 35 bf 3e 94 4b 97 b9 88 38
       1.4898711e-06 1.4898711e-06 1.9430782e+07 6.519554e-05
000170 ec de 4c 39 87 67 2a 36 87 67 2a 36 9a d1 35 57
       0.00019538001 2.5392235e-06 2.5392235e-06 1.9991184e+14
000180 fc d0 08 3b 63 f2 f3 3b 46 54 74 38 46 54 74 38
       0.0020876518 0.0074446662 5.825262e-05 5.825262e-05
000190 01 f0 56 39 ff 68 d1 37 81 bd 44 3a 75 13 37 37
       0.00020498039 2.4963634e-05 0.0007505045 1.091218e-05
0001a0 75 13 37 37 12 45 07 57 99 86 9b 39 d7 18 2d 3a
       1.091218e-05 1.4873072e+14 0.00029664187 0.00066031277
0001b0 73 af 32 39 73 af 32 39 7f 44 5a 44 21 c1 39 3a
       0.00017040763 0.00017040763 873.07025 0.00070859684
0001c0 85 d2 c8 3a f5 2e 65 37 f5 2e 65 37 82 b7 92 4b
       0.0015321529 1.3660397e-05 1.3660397e-05 1.9230468e+07
0001d0 1d 80 9b 37 f2 74 a7 38 86 7b 29 35 86 7b 29 35
       1.8537097e-05 7.984963e-05 6.3137156e-07 6.3137156e-07
0001e0 e9 2c ea 3d 56 32 e7 37 69 ae ce 3a 66 da 8c 37
       0.11434347 2.7560785e-05 0.0015768531 1.6791e-05
0001f0 66 da 8c 37 37 09 1f 39 eb ed ba 38 aa f1 f3 39
       1.6791e-05 0.00015166854 8.913487e-05 0.00046528626
000200 d9 53 13 37 d9 53 13 37 00 00 00 00 00 00 00 00
       8.781405e-06 8.781405e-06 0.0 0.0
000210 00 00 00 00 00 00 00 00 00 00 00 00 5e de 54 37
       0.0 0.0 0.0 1.2687959e-05
000220 78 f9 40 38 5f 4c 3b 38 e9 0d 66 36 e9 0d 66 36
       4.6008703e-05 4.46554e-05 3.4280768e-06 3.4280768e-06
000230 3f 29 9e 42 a1 f0 48 29 f5 11 f6 27 e9 d5 7f 25
       79.08056 4.4617633e-14 6.8298185e-15 2.21902e-16
000240 e9 d5 7f 25 32 a1 cc 3d 5f 2f 9e 39 c1 9d 16 3a
       2.21902e-16 0.09991683 0.00030171403 0.0005745553
000250 1e ce 03 37 1e ce 03 37
       7.856199e-06 7.856199e-06

exp_avg f4 [30]
000000 ce 60 ab 3a 9f 1d 18 3b bb 2f 2b 3a 00 00 00 00
       0.0013075115 0.0023211015 0.0006530245 0.0
000010 00 00 00 00 92 bb e5 b9 cc 41 9c b9 04 00 00 00
       0.0 -0.00043818034 -0.0002980366 6e-45
000020 d8 ad bf 39 50 4a 0b b9 c2 98 a7 ba ac cb c6 3b
       0.00036559883 -0.00013283757 -0.0012786614 0.00606676
000030 56 11 40 3a f9 70 b6 3b 3e a0 aa bb 04 00 00 00
       0.0007326802 0.0055676666 -0.0052070906 6e-45
000040 d4 55 f0 39 7c b7 32 39 2e e3 d6 39 6f 14 a7 bb
       0.00045840314 0.00017043756 0.00040986523 -0.0050988714
000050 b0 26 63 ba 7e 3a a5 3b 60 01 23 3b 2d 1c 1a 39
       -0.00086651277 0.005042373 0.0024872646 0.00014697081
000060 e3 49 d1 ba d2 36 1e bb 00 00 00 00 80 82 d2 b7
       -0.0015967455 -0.0024141562 0.0 -2.509472e-05
000070 04 00 00 00 66 59 82 ba
       6e-45 -0.0009944856

exp_avg_sq f4 [30]
000000 15 a3 ae 37 c6 55 b8 37 f8 7f 4f 38 00 00 00 00
       2.0818357e-05 2.197445e-05 4.9471826e-05 0.0
000010 00 00 00 00 2c 54 90 37 19 9b 2b 37 70 08 fe 19
       0.0 1.7205333e-05 1.0228506e-05 2.6266392e-23
000020 da 3d 6e 36 a3 34 b6 37 5b 22 47 37 4a 92 9a 3a
       3.5500766e-06 2.1720602e-05 1.1869323e-05 0.0011792865
000030 94 ae 24 37 15 e7 b3 3a e9 2e de 3b db d8 23 2a
       9.815809e-06 0.0013725484 0.0067804945 1.4552545e-13
000040 0a 40 32 37 e8 5f 9e 36 ba 5f 50 37 e2 82 a4 39
       1.0624537e-05 4.719932e-06 1.2420054e-05 0.00031378033
000050 88 4b 5d 38 8a 16 22 3a d0 54 8e 38 53 3d 66 36
       5.276085e-05 0.0006183168 6.786885e-05 3.4308366e-06
000060 3d 83 c0 38 54 b7 f8 37 00 00 00 00 c7 f9 96 37
       9.1797185e-05 2.9649273e-05 0.0 1.7997705e-05
000070 e7 2e 2b 26 fc e2 29 38
       5.939111e-16 4.0504136e-05

exp_avg f4 [50, 30]
000000 3c c4 75 3a b5 82 f3 39 a1 f5 54 bb 00 00 00 00
       0.00093752495 0.00046445956 -0.003249504 0.0
000010 00 00 00 00 2d 74 cf 3a a8 62 26 b9 04 00 00 00
       0.0 0.001582747 -0.00015867746 6e-45
000020 b0 f7 a5 38 2c ec 03 3a e5 90 29 39 52 b0 9c ba
       7.9139485e-05 0.0005032446 0.00016171073 -0.0011954403
000030 82 7e 12 bb 6f 74 e0 b9 60 08 1a b9 04 00 00 80
       -0.0022353237 -0.0004281136 -0.00014689704 -6e-45
000040 dc 5b 2b ba 26 25 e1 3a 06 46 94 ba 2a 0c d2 b9
       -0.00065368204 0.0017177209 -0.0011312373 -0.00040063384
000050 52 1f 5d ba 11 62 7e ba b8 99 33 ba 24 79 f5 ba
       -0.0008435148 -0.0009703944 -0.0006851214 -0.0018728119
000060 5c 13 d9 ba 94 b4 9b bb 00 00 00 00 d6 c9 b1 b9
       -0.0016561556 -0.004751751 0.0 -0.0003391045
000070 04 00 00 00 12 ec 2e ba a1 d7 a8 39 de 06 ba b9
       6e-45 -0.00066727505 0.00032204113 -0.000354818
000080 76 ad 47 3b 00 00 00 00 00 00 00 00 60 c7 94 ba
       0.003046838 0.0 0.0 -0.0011350922
000090 eb ee 1a 3a 04 00 00 00 44 9d 4c b9 a8 a9 77 39
       0.00059102353 6e-45 -0.00019513542 0.00023618957
0000a0 10 ec ec b9 bb 9b bd 38 47 36 35 3b 6a 67 e1 39
       -0.00045189308 9.041229e-05 0.002765076 0.00042992394
0000b0 cf 47 2d b8 04 00 00 00 2b d0 13 3a 34 73 e0 ba
       -4.131329e-05 6e-45 0.00056386244 -0.0017124177
0000c0 35 b9 a6 3a 83 ed eb 39 9c 46 a1 3a be 7f 96 39
       0.0012719991 0.00044999653 0.0012304368 0.00028705405
0000d0 a4 25 6a 3a cf be ec 3a 9e 0c 29 3a 81 1b 63 3b
       0.00089320005 0.0018062236 0.00064487185 0.0034653845
0000e0 00 00 00 00 b0 5c fb 38 04 00 00 80 53 89 35 3a
       0.0 0.00011985877 -6e-45 0.0006925065
0000f0 9f 6b 83 bb 82 40 28 bb c2 6b 6b 3c 00 00 00 00
       -0.004010632 -0.0025673215 0.014368953 0.0
000100 00 00 00 00 bb 1e a1 bb e0 6a 97 b9 04 00 00 00
       0.0 -0.0049169934 -0.00028880592 6e-45
000110 5d c6 b8 3a 9b 37 ff ba c0 0f 35 bb 65 34 7e 3b
       0.0014097203 -0.0019471528 -0.0027627796 0.0038788554
000120 6a 84 72 3c ff c1 99 3a f8 ad b2 38 04 00 00 00
       0.014802078 0.0011730789 8.5201056e-05 6e-45
000130 0a f4 6f 3b 26 75 1b bc 52 43 f0 3b 77 f6 16 3b
       0.0036613964 -0.00948838 0.007332244 0.0023035088
000140 30 b6 a6 3b 46 bb 72 3b 10 09 c6 3b c8 e3 2c 3c
       0.0050876364 0.0037037893 0.006043561 0.010552354
000150 e0 92 d4 3b 5c 6e a9 3c 00 00 00 00 da 91 88 3a
       0.0064872354 0.020682506 0.0 0.0010419444
000160 04 00 00 80 bc aa 74 3b b7 99 89 ba 40 af d2 b8
       -6e-45 0.003733321 -0.0010498081 -0.00010046223
000170 bf 7b 69 ba 00 00 00 00 00 00 00 00 bb 11 2f 3a
       -0.0008906684 0.0 0.0 0.0006678362
000180 10 7b 4e ba 04 00 00 80 2d 02 35 3a 9d ce 17 ba
       -0.0007876614 -6e-45 0.0006904926 -0.00057909806
000190 04 e6 30 b9 50 5d e7 39 50 84 13 39 60 91 b7 b9
       -0.00016870355 0.00044129277 0.00014068303 -0.00035012793
0001a0 7b 21 d8 36 04 00 00 80 f0 b3 c8 38 35 f9 d8 38
       6.4411993e-06 -6e-45 9.570259e-05 0.00010346101
0001b0 30 e1 de 38 c0 11 d4 b7 e4 3a b0 b9 ba e5 8c 39
       0.00010627729 -2.5280635e-05 -0.00033613213 0.0002687404
0001c0 06 ec d8 39 10 e6 cf 38 ed 50 ae 39 ce f4 a0 b9
       0.00041374582 9.913382e-05 0.0003324816 -0.00030699972
0001d0 00 00 00 00 72 38 5c 36 04 00 00 80 a0 0f aa b7
       0.0 3.281541e-06 -6e-45 -2.0272855e-05
0001e0 ee 42 e6 39 db e4 92 b8 63 c9 46 3a 00 00 00 00
       0.00043918885 -7.00445e-05 0.00075831095 0.0
0001f0 00 00 00 00 ec cd 72 b9 58 cb 93 39 04 00 00 80
       0.0 -0.0002315563 0.00028189528 -6e-45
000200 dc 43 01 b9 6d f7 8c 39 fc c1 5f b9 a6 2c 97 b9
       -0.00012327678 0.00026887227 -0.00021339202 -0.0002883423
000210 4c 5e 47 3a 97 6e f4 38 67 4b 83 b8 04 00 00 80
       0.0007605299 0.000116554256 -6.2606116e-05 -6e-45
000220 b0 00 f4 38 61 77 00 ba f1 25 c0 39 00 96 02 39
       0.00011634955 -0.00049006013 0.00036649362 0.00012453645
000230 dc 48 e4 39 0a 42 f3 b8 90 ea 82 39 5e 94 e2 39
       0.00043541833 -0.00011599444 0.00024970295 0.0004321662
000240 b2 ff ec b8 b0 3c 15 3a 00 00 00 00 08 f3 e7 b7
       -0.00011300984 0.0005692942 0.0 -2.7650516e-05
000250 04 00 00 00 2e d8 38 39 0b 23 80 b9 dc 75 1a ba
       6e-45 0.0001762814 -0.00024440172 -0.0005892196
000260 c7 d8 8e 3b 00 00 00 00 00 00 00 00 a2 f7 d7 ba
       0.004359338 0.0 0.0 -0.0016476999
000270 c0 8d 07 3a 04 00 00 00 94 23 71 b8 f6 f3 87 b8
       0.00051709637 6e-45 -5.7492012e-05 -6.482743e-05
000280 0a f6 1d ba ce 34 28 3a 6e 2c 83 3b 94 94 0e 3a
       -0.00060257374 0.000641656 0.004003099 0.000543901
000290 50 07 ea 36 04 00 00 80 33 df 6a 3a ab 8a 23 bb
       6.9745947e-06 -6e-45 0.0008959651 -0.0024954479
0002a0 5e 51 f4 3a 96 4a 29 3a 34 e6 d0 3a bc e8 41 3a
       0.0018639972 0.00064579525 0.0015937747 0.0007397046
0002b0 ff 3a b4 3a d5 7e 33 3b 73 b1 b7 3a a9 ca b4 3b
       0.0013750492 0.002738883 0.0014014676 0.005517323
0002c0 00 00 00 00 c7 b4 86 39 04 00 00 80 0b 92 85 3a
       0.0 0.0002569316 -6e-45 0.0010190619
0002d0 28 24 bd ba f2 ab 26 ba 28 41 24 3b 00 00 00 00
       -0.0014430331 -0.00063580193 0.002506325 0.0
0002e0 00 00 00 00 b4 9d 9c b9 7e 82 13 ba 04 00 00 00
       0.0 -0.00029872137 -0.000562705 6e-45
0002f0 6c 71 82 3a c6 35 3e ba 40 a8 5a ba 4f a7 78 3a
       0.0009952015 -0.00072559377 -0.0008341111 0.000948538
000300 dd d9 85 3b 10 df 12 b8 03 2d e2 b7 04 00 00 00
       0.004084809 -3.5016856e-05 -2.696226e-05 6e-45
000310 ed 0a 72 3a 49 62 03 bb 82 4e f3 3a 90 42 16 3a
       0.00092331955 -0.0020047596 0.0018562826 0.00057319645
000320 b7 88 86 3a 2f 28 67 3a 7d 39 ff 3a 54 3e 2b 3b
       0.0010264133 0.00088179385 0.0019472089 0.002612968
000330 98 ac c1 3a dd 3d 86 3b 00 00 00 00 20 6e 3e 39
       0.0014776168 0.00409673 0.0 0.00018160837
000340 04 00 00 80 72 28 6e 3a 3b ef 9b 3a c8 08 2c 39
       -6e-45 0.00090850063 0.0011896858 0.0001640647
000350 60 9d 94 b9 00 00 00 00 00 00 00 00 20 e1 d7 39
       -0.00028346013 0.0 0.0 0.00041175727
000360 57 88 02 3a 04 00 00 80 90 a9 22 b9 1a b6 31 3a
       0.00049794227 -6e-45 -0.00015512691 0.00067791494
000370 90 df a7 b8 ec 69 78 ba 60 e6 b3 39 e8 5b 1f 38
       -8.004822e-05 -0.0009476233 0.00034313183 3.799415e-05
000380 eb 57 0b b9 04 00 00 00 00 0d 17 b9 b4 b8 92 39
       -0.00013288825 6e-45 -0.00014405325 0.00027984905
000390 20 63 7d b8 40 dc cf 37 20 26 7b 39 66 58 21 ba
       -6.0412218e-05 2.4778885e-05 0.00023951428 -0.0006154835
0003a0 c0 67 3e 38 b0 42 5e b9 cf cd 72 ba d6 d5 ae ba
       4.5396155e-05 -0.00021196413 -0.0009262235 -0.0013338875
0003b0 00 00 00 00 90 02 38 b9 04 00 00 00 40 71 84 b7
       0.0 -0.00017548562 6e-45 -1.5788362e-05
0003c0 fc 44 75 ba bc f4 44 ba d0 7d 93 3b 00 00 00 00
       -0.0009356288 -0.0007513275 0.004501082 0.0
0003d0 00 00 00 00 5a d0 bc ba a4 d6 ac 38 04 00 00 00
       0.0 -0.0014405355 8.241579e-05 6e-45
0003e0 30 09 cf 39 f4 f1 e2 b9 9e c2 59 ba d8 c7 82 3a
       0.00039488962 -0.00043286348 -0.0008306893 0.0009977771
0003f0 7f 0e 9f 3b 12 35 d1 39 00 4b 71 36 04 00 00 80
       0.004854023 0.00039903127 3.5955454e-06 -6e-45

exp_avg_sq f4 [50, 30]
000000 11 32 e6 3a 0c e9 ec 36 ed 42 9f 38 00 00 00 00
       0.0017562528 7.0604783e-06 7.594177e-05 0.0
000010 00 00 00 00 df c7 22 44 d7 6d 8e 43 1f f0 84 3c
       0.0 651.123 284.85812 0.01622778
000020 53 18 ad 3c f9 46 13 49 47 2b af 3c eb ed 02 38
       0.021129763 603247.56 0.021382941 3.1215994e-05
000030 31 00 1c 3d a2 cb d7 36 d7 24 9e 36 13 29 09 3c
       0.03808612 6.4312053e-06 4.7130557e-06 0.008371609
000040 81 98 95 44 d5 22 56 3a a0 81 96 43 bd c0 7e 4f
       1196.7657 0.00081686425 301.0127 4.2740442e+09
000050 cb 90 f1 37 ba f2 6a 4b a3 35 54 3a 02 34 db 3f
       2.8796863e-05 1.5397562e+07 0.00080951507 1.7125247
000060 85 ea a0 37 13 2e ac 38 00 00 00 00 ca 9c 21 37
       1.9182693e-05 8.210181e-05 0.0 9.632853e-06
000070 be d4 11 3c f0 9e 2d 38 e9 55 43 3b 51 73 59 36
       0.008900819 4.1394436e-05 0.0029805845 3.2402643e-06
000080 89 1a 0b 38 00 00 00 00 00 00 00 00 9b 13 31 44
       3.3164895e-05 0.0 0.0 708.30634
000090 e7 d6 a3 3f ae 3b d4 3c 58 a1 fb 3c 2f 19 2e 49
       1.2799958 0.025907364 0.030716583 713106.94
0000a0 37 ca 0c 3d 3f 26 95 36 65 c6 65 3d 04 53 4b 35
       0.034372535 4.4449985e-06 0.056097407 7.5744197e-07
0000b0 85 bd 24 35 d5 96 96 3c 07 71 f0 44 64 3b b0 3a
       6.137055e-07 0.01838247 1923.5321 0.0013445434
0000c0 e7 b8 a3 43 f0 cb 1c 4a 81 74 13 37 60 76 77 4f
       327.44455 2.568956e+06 8.7890085e-06 4.1517302e+09
0000d0 b4 c6 8a 3a 58 72 ee 3f 05 e8 e9 36 f1 c5 bd 37
       0.0010587783 1.8628645 6.9709517e-06 2.262273e-05
0000e0 00 00 00 00 4a 7f ae 35 1b 25 79 3c 6e 91 f3 37
       0.0 1.3001056e-06 0.015206601 2.9035578e-05
0000f0 15 89 c7 3b 6a 0e 2c 39 ea 23 1b 3b 00 00 00 00
       0.0060893395 0.00016408568 0.002367253 0.0
000100 00 00 00 00 90 fd e9 44 1d 8f fa 43 73 28 ad 3c
       0.0 1871.9238 501.11807 0.021137452
000110 42 c6 da 3c 51 11 bd 48 f0 6e 3a 3d fa a5 5f 3a
       0.026705865 387210.53 0.045515954 0.00085315073
000120 c1 9c ee 3d f6 81 38 39 7e d0 f7 38 bc 65 8b 3c
       0.11650992 0.00017596022 0.000118167125 0.017016284
000130 d5 1f 77 44 f5 ed 86 3b 81 58 58 44 51 da fe 4f
       988.4974 0.004117722 865.3829 8.551441e+09
000140 6f b5 bc 3a 0d 84 a0 50 0c f7 e5 3b 7d b6 9d 40
       0.0014397333 2.154407e+10 0.0070179757 4.9285264
000150 53 e0 df 39 23 3f 0b 3b 00 00 00 00 e1 93 6a 39
       0.0004270101 0.002124735 0.0 0.00022371068
000160 75 cf 40 3c 5d 2a b4 3a 5c aa b7 3b 8a 04 f0 36
       0.011768212 0.0013745535 0.005605025 7.153086e-06
000170 7d 4d 3d 39 00 00 00 00 00 00 00 00 cb 2a fd 43
       0.00018053311 0.0 0.0 506.33432
000180 bc 0f 13 44 8d ac 37 3c 3b 4e 4e 3c 09 ec 15 49
       588.24585 0.011210573 0.012591894 614080.56
000190 25 3f 2f 3d dd 1a 14 38 ce 2f 8a 3d fc 4b ef 36
       0.04278483 3.5310968e-05 0.06747399 7.131601e-06
0001a0 cf c3 a4 36 17 77 81 3c b4 7e e8 44 0f d0 fd 3a
       4.910376e-06 0.015803857 1859.9595 0.0019364374
0001b0 91 13 6a 43 1d 4d 11 50 e1 8b 87 38 ae 9c 24 4e
       234.07643 9.751e+09 6.463356e-05 6.904329e+08
0001c0 21 8b 02 3b 0d 79 aa 3f 54 d6 bc 37 f7 1e a2 38
       0.0019919353 1.3318192 2.251115e-05 7.7305296e-05
0001d0 00 00 00 00 84 24 04 37 3e fb bc 3b 3e 15 77 38
       0.0 7.876315e-06 0.005767255 5.8909172e-05
0001e0 7f 2b 78 3b 1a aa 00 36 68 72 0f 39 00 00 00 00
       0.0037867723 1.9172498e-06 0.00013680162 0.0
0001f0 00 00 00 00 3b 78 91 44 3a 7b 11 43 4c ad 82 3c
       0.0 1163.7572 145.48135 0.015951775
000200 5e 51 be 3c 9b f2 02 49 76 a4 32 3d e3 69 97 36
       0.023232158 536361.7 0.043613873 4.5124775e-06
000210 00 09 ac 3d a3 c2 70 35 31 42 35 35 81 eb 55 3c
       0.08400154 8.96902e-07 6.7524076e-07 0.013056637
000220 ee ac 88 44 1c 57 88 3a ce 7f 06 44 78 57 09 4f
       1093.404 0.0010401937 537.99695 2.304211e+09
000230 de c9 c6 36 9b 15 b8 4d ee b7 26 3a 55 e1 43 40
       5.9243603e-06 3.8605296e+08 0.0006359805 3.0606282
000240 bf d5 ea 36 6b 20 81 37 00 00 00 00 d2 c2 bb 35
       6.9986268e-06 1.5393094e-05 0.0 1.3989286e-06
000250 a1 8b 3d 3c 41 2d cb 37 95 70 20 3b d0 5a c8 36
       0.011568935 2.4220559e-05 0.0024481167 5.9710364e-06
000260 f6 37 a0 38 00 00 00 00 00 00 00 00 79 48 67 44
       7.639818e-05 0.0 0.0 925.1324
000270 09 87 12 42 3b cb 82 3c fe 50 a1 3c 6c 23 90 48
       36.63187 0.015966048 0.01969194 295195.38
000280 f6 cf e8 3c 75 cf a4 37 37 72 47 3d 5c fe 88 36
       0.028419476 1.9646928e-05 0.04869291 4.082727e-06
000290 7e 5c 34 36 ae 10 36 3c b5 e6 f7 44 08 79 99 3a
       2.6875928e-06 0.011112375 1983.2096 0.0011709044
0002a0 97 d7 d5 43 0e 8a 05 4e 6e 4b 06 38 8a 0d cd 4e
       427.6843 5.601043e+08 3.201834e-05 1.7201083e+09
0002b0 df 24 81 3a 6b b9 1b 40 b4 c1 6e 37 83 52 84 38
       0.0009852907 2.433192 1.42310055e-05 6.3096195e-05
0002c0 00 00 00 00 51 12 d2 36 e3 f5 1d 3c 2c 60 5d 38
       0.0 6.26062e-06 0.0096411435 5.2780073e-05
0002d0 a7 0a 59 3b 30 a3 86 37 a3 02 91 39 00 00 00 00
       0.0033117922 1.6050035e-05 0.0002765852 0.0
0002e0 00 00 00 00 cc 05 64 43 c0 84 1e 40 b0 4e d5 3b
       0.0 228.02264 2.4768524 0.0065096244
0002f0 12 69 0a 3c 3c eb 0e 49 fc cf ad 3c 17 1e d4 38
       0.008447902 585395.75 0.021217339 0.000101145524
000300 f2 09 16 3d 56 ee a6 37 7b d7 69 37 01 84 19 3c
       0.03663058 1.9899726e-05 1.3938053e-05 0.009369851
000310 fa 87 da 44 eb 6e c4 3a 07 d4 d2 42 9d 75 09 4c
       1748.2493 0.0014986669 105.414116 3.6034164e+07
000320 12 ae 47 39 79 1f 85 4f bf df d6 3a 1c b1 19 3f
       0.00019042965 4.4668646e+09 0.0016393586 0.6003587
000330 45 ed 6b 38 d2 14 66 39 00 00 00 00 a4 a4 af 37
       5.624934e-05 0.00021942265 0.0 2.0938292e-05
000340 3e ba 9b 3b fc 61 2e 39 83 0b 9e 3b 8b 6e 11 37
       0.0047524264 0.00016630435 0.0048231496 8.668411e-06
000350 54 45 b9 38 00 00 00 00 00 00 00 00 a1 3b 85 42
       8.834401e-05 0.0 0.0 66.61646
000360 8b 82 1f 41 48 3f 9f 3c 77 0f ac 3c 39 c3 e4 48
       9.969371 0.019439355 0.021003468 468505.78
000370 67 9f 2f 3d 78 a2 ea 37 9c 1a 90 3d b4 40 c4 36
       0.042876627 2.797063e-05 0.07036325 5.8487876e-06
000380 bc 5e 8b 36 a4 e5 7a 3c b3 d4 cd 44 3b dd d8 3a
       4.1535513e-06 0.01531354 1646.6469 0.0016545424
000390 40 5f f6 41 ea ea 10 4d 6f f0 08 38 72 ef a2 4f
       30.796509 1.5195715e+08 3.2648848e-05 5.4672026e+09
0003a0 bf 1e c7 3a 60 8e 33 3e fc 52 93 37 ba 9e a7 38
       0.0015191658 0.1753478 1.7562408e-05 7.992746e-05
0003b0 00 00 00 00 6b b4 0e 37 22 a3 2b 3c b0 79 59 38
       0.0 8.505866e-06 0.010475906 5.1850162e-05
0003c0 0f 3f b0 3b 1a 2d 63 37 c2 5b 57 39 00 00 00 00
       0.005378611 1.3540755e-05 0.0002053818 0.0
0003d0 00 00 00 00 9c 15 33 41 cd 69 06 41 ab f6 39 3c
       0.0 11.192776 8.40083 0.011350314
0003e0 1f b9 21 3c db cb 4d 49 25 4b 4b 3d f9 18 8e 38
       0.009870796 842941.7 0.04963221 6.775739e-05
0003f0 56 cd ba 3d 1b a7 69 37 f0 b7 1b 37 86 7f 74 3c
       0.09121196 1.39267895e-05 9.281546e-06 0.014922982

exp_avg f4 [50]
000000 f7 0e 3d ba d6 46 22 3a 17 b6 90 3b cd e7 5c 39
       -0.0007212008 0.0006190365 0.004416238 0.00021067187
000010 4d ae 02 39 f9 cb 84 3a f5 46 9c 3a 10 ca 47 b9
       0.00012462698 0.0010131589 0.0011923002 -0.00019053393
000020 82 b5 ae 3a a8 33 37 39 bc 5e 87 39 6a 6f bd b9
       0.001332924 0.00017471483 0.0002581979 -0.000361319
000030 40 de e7 ba 4b 20 14 bb 00 75 f5 b9 06 94 8b ba
       -0.0017690137 -0.0022602256 -0.00046817213 -0.0010648973
000040 cc 08 08 3a c8 2a 96 3a 3a b8 92 b9 05 b3 9b ba
       0.0005189299 0.0011456842 -0.0002798455 -0.0011878914
000050 5a 0a e8 b8 61 e3 f5 3a c5 df bf ba 20 91 1f 3a
       -0.0001106455 0.0018759781 -0.0014638832 0.0006086994
000060 d4 c7 9c b9 53 e4 74 39 35 07 c5 39 d5 d3 ae 39
       -0.00029903522 0.0002335471 0.00037580138 0.00033345693
000070 e1 fc 3d ba 0e 2c cd b9 28 34 d2 ba 38 b0 c6 38
       -0.000724746 -0.0003913347 -0.0016037272 9.474199e-05
000080 7b 0f 86 ba 40 a8 ec b9 8e fc df b9 d0 93 6a 3a
       -0.0010228002 -0.00045138784 -0.00042722042 0.00089484174
000090 4d 46 11 bb b1 8f 6f 3a 99 ae 2b ba 79 f4 48 ba
       -0.0022167147 0.0009138538 -0.00065491494 -0.0007665824
0000a0 b9 36 05 3b 33 8e 8c 3a 2c 35 2a 3a 8c 41 ef b9
       0.0020326807 0.0010723531 0.00064929086 -0.0004563447
0000b0 fc 10 93 3a bd 83 15 b9 ac 3b f0 39 06 7e 9e ba
       0.0011220272 -0.00014258824 0.00045820826 -0.0012092001
0000c0 d9 d9 cb ba 35 e7 4a 3b
       -0.0015552595 0.0030960564

exp_avg_sq f4 [50]
000000 37 07 89 37 7d 6f a4 36 b2 67 e4 39 45 b6 85 37
       1.6335032e-05 4.90056e-06 0.00043564808 1.5939711e-05
000010 f8 ea 48 36 1a 33 5c 37 f1 ec 49 38 14 11 7c 37
       2.9939092e-06 1.312492e-05 4.8142803e-05 1.5024347e-05
000020 3b 60 17 38 59 86 49 37 63 f9 92 37 48 8b 1a 36
       3.6090827e-05 1.2011814e-05 1.7520686e-05 2.302886e-06
000030 43 07 2f 38 96 53 82 38 ca 5f d4 36 55 1a 93 38
       4.1730014e-05 6.214452e-05 6.3292437e-06 7.014411e-05
000040 e9 35 8d 37 b1 7f 85 37 72 08 c7 37 c6 e4 7b 37
       1.6833614e-05 1.5914296e-05 2.3726581e-05 1.5014031e-05
000050 1b 78 b1 35 fb 1b 3b 38 34 75 7b 38 07 f5 1c 38
       1.3222483e-06 4.4610333e-05 5.9952217e-05 3.7421498e-05
000060 71 81 07 37 00 bb 13 37 61 b8 48 36 b4 e9 23 36
       8.076765e-06 8.805422e-06 2.9909645e-06 2.4424926e-06
000070 a5 d3 c4 36 8b 0e 35 37 da e1 6e 38 6d d5 53 35
       5.865894e-06 1.0791827e-05 5.6953962e-05 7.89142e-07
000080 6d 5a 56 38 2e cc f3 37 d4 2c 57 36 46 c6 2f 37
       5.110579e-05 2.9062936e-05 3.206359e-06 1.0476977e-05
000090 5c 64 dd 38 d3 34 54 38 86 ef ee 36 fa fd 37 37
       0.000105567946 5.0593935e-05 7.120837e-06 1.09667835e-05
0000a0 08 68 b0 38 88 23 af 37 8a 22 84 36 cf bf ff 36
       8.411711e-05 2.0878171e-05 3.9379274e-06 7.6219217e-06
0000b0 31 cf f7 37 44 f7 91 34 c9 4e 4b 36 e8 5b d3 37
       2.9541176e-05 2.7188264e-07 3.0295216e-06 2.5195957e-05
0000c0 51 a0 18 38 9a 11 06 39
       3.638893e-05 0.00012785793

exp_avg f4 [3, 50]
000000 79 2c 98 bc 0c 9a 0f bc eb e9 5f 3c 93 4c bc 3c
       -0.018575894 -0.008764755 0.01366661 0.022985732
000010 de e5 cd 3c 98 c6 9b 3c 28 de 2c 3d 1c 8c 13 3c
       0.025134023 0.019015595 0.042204052 0.009005573
000020 0e 6d a6 3c 91 de ee 3c 47 67 2a bc 67 69 6d bb
       0.020315673 0.029158862 -0.0104006 -0.0036226155
000030 e0 26 95 b9 00 fb 32 bc 17 93 ba bc 62 3f 4e bc
       -0.0002844846 -0.010924101 -0.022775216 -0.012588354
000040 85 0d cc 3c a2 09 c9 bb d3 be 9b 3c e2 d1 2d 3d
       0.02490879 -0.0061351815 0.01901189 0.042436488
000050 a8 b1 cb bc 50 66 2b bb 03 48 24 bd 5d 7d 88 3c
       -0.024864987 -0.0026153512 -0.04010774 0.01666134
000060 fb 4d bc 3c 1a a3 33 bc c1 b4 7a 3c 84 96 08 3d
       0.022986403 -0.010964179 0.015301884 0.033346668
000070 bf 9b 88 bc 71 90 81 3a 11 76 9a bc 7e fe e7 3c
       -0.016675828 0.0009884966 -0.018855127 0.028319594
000080 62 69 d9 bc a4 be 25 bc 99 6a ba 3c 97 e7 ce 3c
       -0.026539508 -0.010116253 0.022755908 0.025256915
000090 e9 c1 d9 bc d2 84 ee 3c e6 8a 9a bc e0 10 e9 3b
       -0.026581721 0.029116068 -0.01886506 0.0071126074
0000a0 70 37 5b 3c a8 8c 31 3c e4 92 12 3d aa 63 48 3c
       0.013379917 0.010836758 0.035784617 0.012230793
0000b0 b2 f4 31 bb 0e b6 71 3c 2e 30 82 bc 32 dc 26 bd
       -0.0027153906 0.014752878 -0.015892114 -0.04073734
0000c0 62 52 27 bc f2 29 3d 3c a8 59 ca 3a 9e b7 8a 3b
       -0.010212513 0.011545645 0.0015438097 0.0042333147
0000d0 9e 55 22 3a 25 16 c0 bb 4e cf 9c 3a 1a 47 81 bb
       0.00061925675 -0.005862015 0.0011963637 -0.0039452435
0000e0 c0 0d c1 3a de d2 26 3b a9 03 43 bb c1 78 2a bb
       0.0014728829 0.0025455276 -0.002975682 -0.0026011916
0000f0 bc fb af 3b 6a ef 90 bb ba ab 27 3b 96 53 c9 ba
       0.0053705852 -0.0044230716 0.0025584535 -0.0015359994
000100 4f 0a 43 3b 78 e9 97 b9 d0 51 23 bb ba 0b f1 3a
       0.0029760783 -0.00028974912 -0.002492059 0.0018390336
000110 a0 3f ba ba a2 32 a2 bb 9c cb b3 3b 36 6e 8d 3a
       -0.0014209636 -0.0049498836 0.0054869186 0.0010790292
000120 a2 93 25 3b 80 9c e5 b8 54 16 51 3a 3c 97 39 3a
       0.0025264998 -0.00010948721 0.00079760444 0.00070797256
000130 8d 12 63 bb c7 d4 aa ba f6 47 52 3b 6e 1b be 3a
       -0.0034648508 -0.0013033383 0.003208635 0.0014504024
000140 67 c6 de 3b a1 10 52 bb 94 fb ac 3a 62 ee 0f bb
       0.0067985537 -0.0032053369 0.0013197535 -0.0021962156
000150 99 89 07 bc 1e c4 3f bb df 96 a4 ba ae 6f cc 3a
       -0.008272552 -0.0029261182 -0.001255717 0.0015597248
000160 5c d9 80 39 29 cd cf bb 47 5a ee 39 34 1f 02 bc
       0.00024576008 -0.0063415957 0.0004546216 -0.00794201
000170 40 55 61 bb f3 5e 8d bb 6b 86 3e 3a b6 5b 2b bb
       -0.0034383088 -0.0043142973 0.00072679546 -0.0026147193
000180 90 49 20 3a d0 6e b2 b9 81 13 3b 3b 8d 7d b0 3a
       0.00061144773 -0.00034033367 0.002854556 0.0013465151
000190 76 87 19 3c bc 88 6e bc 87 b8 dc bb 67 ff 99 3c
       0.009370675 -0.014558967 -0.0067358646 0.018798543
0001a0 2f 8f 7d bc f6 85 6c bc e5 d5 0e bc 88 53 0d bc
       -0.015476032 -0.014436236 -0.008717989 -0.008625872
0001b0 92 f9 ed bb 1f 9d 4a bb 64 59 26 bc 95 f9 d3 3c
       -0.007262417 -0.0030916405 -0.010153148 0.025875846
0001c0 46 8d 0f 3b 32 f8 26 3b 13 ac 9f bb 2c e1 0b bb
       0.0021904274 0.0025477526 -0.004872808 -0.002134393
0001d0 3e a5 cb bb f1 86 33 bc e4 8e 95 bc f1 34 ba bb
       -0.0062147668 -0.0109574655 -0.018256612 -0.0056825806
0001e0 46 cc de 3b 58 da 08 3b 00 aa b8 3c e3 7b 3b bc
       0.0067992536 0.0020882096 0.022542 -0.011443111
0001f0 2c da 43 bc 00 fd 70 b8 d3 f7 0a bc 96 a7 59 bc
       -0.011953872 -5.7456084e-05 -0.008481937 -0.0132845845
000200 53 27 14 3c 30 5d 96 b9 02 46 c2 3b c0 f1 cf ba
       0.009042579 -0.0002867966 0.0059287557 -0.0015864894
000210 b6 bc 4b 3c f5 65 3d 3c ce 39 28 bc 5c 7e d4 bb
       0.012435129 0.011559953 -0.010267688 -0.00648479
000220 54 46 1e 3c 73 44 ea bb 9d 7b 19 3c 70 08 ff 3b
       0.009660322 -0.007149273 0.009367851 0.0077829883
000230 68 b5 bb b9 74 5d be bb f3 3a be bc 7a 02 99 3b
       -0.00035802578 -0.0058094803 -0.023221469 0.0046694847
000240 b6 5d 45 b9 48 29 94 3b 4c d5 83 3a a5 3d bb 3c
       -0.00018822294 0.0045215227 0.0010058074 0.022856543
000250 5e 65 02 3b f4 fd a2 bb
       0.0019896845 -0.004974121
